…
e docs here.

happy_model.compile(optimizer='adam',
                   loss='binary_crossentropy',
                   metrics=['accuracy'])
It's time to check your model's parameters with the .summary() method. This will display the types of layers you have, the shape of the outputs, and how many parameters are in each layer.

happy_model.summary()
Model: "sequential_5"
_________________________________________________________________
Layer (type)                 Output Shape              Param #   
=================================================================
zero_padding2d_5 (ZeroPaddin (None, 70, 70, 3)         0         
_________________________________________________________________
conv2d_4 (Conv2D)            (None, 64, 64, 32)        4736      
_________________________________________________________________
batch_normalization_3 (Batch (None, 64, 64, 32)        128       
_________________________________________________________________
re_lu_1 (ReLU)               (None, 64, 64, 32)        0         
_________________________________________________________________
max_pooling2d (MaxPooling2D) (None, 32, 32, 32)        0         
_________________________________________________________________
flatten (Flatten)            (None, 32768)             0         
_________________________________________________________________
dense (Dense)                (None, 1)                 32769     
=================================================================
Total params: 37,633
Trainable params: 37,569
Non-trainable params: 64
_________________________________________________________________

3.2 - Train and Evaluate the Model
After creating the model, compiling it with your choice of optimizer and loss function, and doing a sanity check on its contents, you are now ready to build!
…
        ['ReLU', (None, 8, 8, 16), 0],
        ['MaxPooling2D', (None, 2, 2, 16), 0, (4, 4), (4, 4), 'same'],
        ['Flatten', (None, 64), 0],
        ['Dense', (None, 6), 390, 'softmax']]
    
comparator(summary(conv_model), output)
Model: "functional_1"
_________________________________________________________________
Layer (type)                 Output Shape              Param #   
=================================================================
input_2 (InputLayer)         [(None, 64, 64, 3)]       0         
_________________________________________________________________
conv2d (Conv2D)              (None, 64, 64, 8)         392       
_________________________________________________________________
re_lu (ReLU)                 (None, 64, 64, 8)         0         
_________________________________________________________________
max_pooling2d (MaxPooling2D) (None, 8, 8, 8)           0         
_________________________________________________________________
conv2d_1 (Conv2D)            (None, 8, 8, 16)          528       
_________________________________________________________________
re_lu_1 (ReLU)               (None, 8, 8, 16)          0         
_________________________________________________________________
max_pooling2d_1 (MaxPooling2 (None, 2, 2, 16)          0         
_________________________________________________________________
flatten (Flatten)            (None, 64)                0         
_________________________________________________________________
dense (Dense)                (None, 6)                 390       
=================================================================
Total params: 1,310
Trainable params: 1,310
Non-trainable params: 0
_________________________________________________________________
All tests passed!
Both the Sequential and Functional APIs return a TF Keras model object. The only difference is how inputs are handled inside the object model!


4.4 - Train the Model
train_dataset = tf.data.Dataset.from_tensor_slices((X_train, Y_train)).batch(64)
…
